…
                                                                                Epoch 9: 100%|██████████| 235/235 [00:10<00:00, 21.61it/s, v_num=12, acc1/train=0.990, f1/train=0.990, precision/train=0.990, recall/train=0.990, acc1/val=0.976, f1/val=0.976, precision/val=0.976, recall/val=0.976]    Epoch 9: 100%|██████████| 235/235 [00:10<00:00, 21.61it/s, v_num=12, acc1/train=0.990, f1/train=0.990, precision/train=0.990, recall/train=0.990, acc1/val=0.976, f1/val=0.976, precision/val=0.976, recall/val=0.976]    Epoch 9: 100%|██████████| 235/235 [00:10<00:00, 21.61it/s, v_num=12, acc1/train=0.990, f1/train=0.990, precision/train=0.990, recall/train=0.990, acc1/val=0.976, f1/val=0.976, precision/val=0.976, recall/val=0.976]

    SupervisedCrossEntropy(
      (backbone): LeNet(
        (conv1): Conv2d(1, 6, kernel_size=(5, 5), stride=(1, 1), padding=(2, 2))
        (pool1): AvgPool2d(kernel_size=2, stride=2, padding=0)
        (conv2): Conv2d(6, 16, kernel_size=(5, 5), stride=(1, 1))
        (pool2): AvgPool2d(kernel_size=2, stride=2, padding=0)
        (fc1): Linear(in_features=400, out_features=120, bias=True)
        (fc2): Linear(in_features=120, out_features=84, bias=True)
        (fc3): Linear(in_features=84, out_features=10, bias=True)
      )
    )



.. GENERATED FROM PYTHON SOURCE LINES 257-264

Visualization of the classification metrics during training
^^^^^^^^^^^^^^^^^^^^^^^^^^^^^^^^^^^^^^^^^^^^^^^^^^^^^^^^^^^

During training, we can visualize the classification metrics logged
by the :class:`~nidl.callbacks.MetricsCallback` using TensorBoard.
The logged metrics are stored in the `lightning_logs` folder by default.
…
                                                                                Epoch 9: 100%|██████████| 235/235 [00:51<00:00,  4.60it/s, v_num=13, loss/train=0.328, loss/val=1.130, alignment/val=0.119, uniformity/val=-3.44, contrastive_acc/val=0.750]    Epoch 9: 100%|██████████| 235/235 [00:51<00:00,  4.60it/s, v_num=13, loss/train=0.328, loss/val=1.130, alignment/val=0.119, uniformity/val=-3.44, contrastive_acc/val=0.750]    Epoch 9: 100%|██████████| 235/235 [00:51<00:00,  4.60it/s, v_num=13, loss/train=0.328, loss/val=1.130, alignment/val=0.119, uniformity/val=-3.44, contrastive_acc/val=0.750]

    SimCLR(
      (encoder): LeNet(
        (conv1): Conv2d(1, 6, kernel_size=(5, 5), stride=(1, 1), padding=(2, 2))
        (pool1): AvgPool2d(kernel_size=2, stride=2, padding=0)
        (conv2): Conv2d(6, 16, kernel_size=(5, 5), stride=(1, 1))
        (pool2): AvgPool2d(kernel_size=2, stride=2, padding=0)
        (fc1): Linear(in_features=400, out_features=120, bias=True)
        (fc2): Linear(in_features=120, out_features=84, bias=True)
        (fc3): Linear(in_features=84, out_features=32, bias=True)
      )
      (projection_head): SimCLRProjectionHead(
        (layers): Sequential(
          (0): Linear(in_features=32, out_features=32, bias=True)
          (1): ReLU()
          (2): Linear(in_features=32, out_features=32, bias=True)
        )
      )
      (loss): InfoNCE(temperature=0.1)
    )



.. GENERATED FROM PYTHON SOURCE LINES 404-408

Visualization of the self-supervised metrics during training
^^^^^^^^^^^^^^^^^^^^^^^^^^^^^^^^^^^^^^^^^^^^^^^^^^^^^^^^^^^^

As before, we visualize the logged metrics using tensorboard.

.. GENERATED FROM PYTHON SOURCE LINES 408-425

.. code-block:: Python
…
